GFN(
  (t_model): TimeEncodingVAE(
    (t_model): Sequential(
      (0): Linear(in_features=128, out_features=64, bias=True)
      (1): GELU(approximate='none')
      (2): Linear(in_features=64, out_features=64, bias=True)
    )
  )
  (s_model): StateEncodingVAE(
    (x_model): Sequential(
      (0): Linear(in_features=804, out_features=64, bias=True)
      (1): GELU(approximate='none')
      (2): Sequential(
        (0): Linear(in_features=64, out_features=64, bias=True)
        (1): GELU(approximate='none')
      )
      (3): Sequential(
        (0): Linear(in_features=64, out_features=64, bias=True)
        (1): GELU(approximate='none')
      )
      (4): Linear(in_features=64, out_features=64, bias=True)
    )
  )
  (joint_model): JointPolicyVAE(
    (model): Sequential(
      (0): GELU(approximate='none')
      (1): Sequential(
        (0): Linear(in_features=64, out_features=64, bias=True)
        (1): GELU(approximate='none')
      )
      (2): Sequential(
        (0): Linear(in_features=64, out_features=64, bias=True)
        (1): GELU(approximate='none')
      )
      (3): Linear(in_features=64, out_features=40, bias=True)
    )
  )
  (flow_model): FlowModelVAE(
    (model): Sequential(
      (0): GELU(approximate='none')
      (1): Sequential(
        (0): Linear(in_features=64, out_features=64, bias=True)
        (1): GELU(approximate='none')
      )
      (2): Sequential(
        (0): Linear(in_features=64, out_features=64, bias=True)
        (1): GELU(approximate='none')
      )
      (3): Linear(in_features=64, out_features=1, bias=True)
    )
  )
  (langevin_scaling_model): LangevinScalingModelVAE(
    (lgv_model): Sequential(
      (0): Linear(in_features=128, out_features=64, bias=True)
      (1): Sequential(
        (0): GELU(approximate='none')
        (1): Linear(in_features=64, out_features=64, bias=True)
      )
      (2): Sequential(
        (0): GELU(approximate='none')
        (1): Linear(in_features=64, out_features=64, bias=True)
      )
      (3): GELU(approximate='none')
      (4): Linear(in_features=64, out_features=1, bias=True)
    )
  )
)
  0%|          | 0/25001 [00:01<?, ?it/s]
Traceback (most recent call last):
  File "/Users/pedrodall/Documents/mestrado/projetos/gfn-diffusion/vae/train.py", line 382, in <module>
    train()
  File "/Users/pedrodall/Documents/mestrado/projetos/gfn-diffusion/vae/train.py", line 340, in train
    metrics.update(eval_step(eval_data, energy, gfn_model, final_eval=False, condition=condition))
…
