GFN(
  (t_model): TimeEncodingVAE(
    (t_model): Sequential(
      (0): Linear(in_features=128, out_features=64, bias=True)
      (1): GELU(approximate='none')
      (2): Linear(in_features=64, out_features=64, bias=True)
    )
  )
  (s_model): StateEncodingVAE(
    (x_model): Sequential(
      (0): Linear(in_features=3, out_features=64, bias=True)
      (1): GELU(approximate='none')
      (2): Sequential(
        (0): Linear(in_features=64, out_features=64, bias=True)
        (1): GELU(approximate='none')
      )
      (3): Sequential(
        (0): Linear(in_features=64, out_features=64, bias=True)
        (1): GELU(approximate='none')
      )
      (4): Linear(in_features=64, out_features=64, bias=True)
    )
  )
  (d_model): DeepSet(
    (phi): Sequential(
      (0): Linear(in_features=2, out_features=64, bias=True)
      (1): ReLU()
      (2): Linear(in_features=64, out_features=64, bias=True)
      (3): ReLU()
    )
    (rho): Sequential(
      (0): Linear(in_features=64, out_features=64, bias=True)
      (1): ReLU()
      (2): Linear(in_features=64, out_features=1, bias=True)
    )
  )
  (joint_model): JointPolicyVAE(
    (model): Sequential(
      (0): GELU(approximate='none')
      (1): Sequential(
        (0): Linear(in_features=64, out_features=64, bias=True)
        (1): GELU(approximate='none')
      )
      (2): Sequential(
        (0): Linear(in_features=64, out_features=64, bias=True)
        (1): GELU(approximate='none')
      )
      (3): Linear(in_features=64, out_features=4, bias=True)
    )
  )
  (flow_model): FlowModelVAE(
    (model): Sequential(
      (0): GELU(approximate='none')
      (1): Sequential(
        (0): Linear(in_features=64, out_features=64, bias=True)
        (1): GELU(approximate='none')
      )
      (2): Sequential(
        (0): Linear(in_features=64, out_features=64, bias=True)
        (1): GELU(approximate='none')
      )
      (3): Linear(in_features=64, out_features=1, bias=True)
    )
  )
  (langevin_scaling_model): LangevinScalingModelVAE(
    (lgv_model): Sequential(
      (0): Linear(in_features=128, out_features=64, bias=True)
      (1): Sequential(
        (0): GELU(approximate='none')
        (1): Linear(in_features=64, out_features=64, bias=True)
      )
      (2): Sequential(
        (0): GELU(approximate='none')
        (1): Linear(in_features=64, out_features=64, bias=True)
      )
      (3): GELU(approximate='none')
      (4): Linear(in_features=64, out_features=1, bias=True)
    )
  )
)
 12%|█▏        | 3100/25001 [16:45<1:46:18,  3.43it/s]
logz: tensor(-52.2279)
logz: tensor(-61.3709)
logz: tensor(-49.4535)
logz: tensor(-50.2564)
logz: tensor(-53.8314)
logz: tensor(-48.5502)
logz: tensor(-50.8808)
logz: tensor(-53.1196)
logz: tensor(-49.2815)
logz: tensor(-53.0945)
logz: tensor(-50.5644)
logz: tensor(-50.5383)
logz: tensor(-53.1017)
…
